__________________________________________________________________________________________________
Layer (type)                    Output Shape         Param #     Connected to                     
==================================================================================================
the_input (InputLayer)          (None, 128, 64, 1)   0                                            
__________________________________________________________________________________________________
conv1 (Conv2D)                  (None, 128, 64, 16)  160         the_input[0][0]                  
__________________________________________________________________________________________________
max1 (MaxPooling2D)             (None, 64, 32, 16)   0           conv1[0][0]                      
__________________________________________________________________________________________________
conv2 (Conv2D)                  (None, 64, 32, 16)   2320        max1[0][0]                       
__________________________________________________________________________________________________
max2 (MaxPooling2D)             (None, 32, 16, 16)   0           conv2[0][0]                      
__________________________________________________________________________________________________
reshape (Reshape)               (None, 32, 256)      0           max2[0][0]                       
__________________________________________________________________________________________________
dense1 (Dense)                  (None, 32, 32)       8224        reshape[0][0]                    
__________________________________________________________________________________________________
gru1 (GRU)                      (None, 32, 512)      837120      dense1[0][0]                     
__________________________________________________________________________________________________
gru1_b (GRU)                    (None, 32, 512)      837120      dense1[0][0]                     
__________________________________________________________________________________________________
add_1 (Add)                     (None, 32, 512)      0           gru1[0][0]                       
                                                                 gru1_b[0][0]                     
__________________________________________________________________________________________________
gru2 (GRU)                      (None, 32, 512)      1574400     add_1[0][0]                      
__________________________________________________________________________________________________
gru2_b (GRU)                    (None, 32, 512)      1574400     add_1[0][0]                      
__________________________________________________________________________________________________
concatenate_1 (Concatenate)     (None, 32, 1024)     0           gru2[0][0]                       
                                                                 gru2_b[0][0]                     
__________________________________________________________________________________________________
dense2 (Dense)                  (None, 32, 36)       36900       concatenate_1[0][0]              
__________________________________________________________________________________________________
softmax (Activation)            (None, 32, 36)       0           dense2[0][0]                     
==================================================================================================
Total params: 4,870,644
Trainable params: 4,870,644
Non-trainable params: 0
__________________________________________________________________________________________________
Predicted: M41Z9Z5B
True: M41Z9Z5B
Predicted: 4DQFPU__
True: 4DQTPU__
Predicted: 2W163R2_
…
